modules/cnet_modules/inpainting/saliency_model.pt (torch_old, 451123 bytes, 34 tensors)

downsampler.1.weight f4 [8, 3, 9, 9]
0	0xbd11b062	-0.035568602
1	0x3d2a66cb	0.041601937
2	0x3d940f85	0.072295226
3	0x3de76d89	0.11300189
4	0x3e395440	0.18098545
5	0x3e3f6bf3	0.18693523
6	0x3e04fdd2	0.1298745
7	0x3e39d202	0.18146518
8	0x3d1b9e4b	0.037992757
9	0x3c89daeb	0.016828021
10	0x3d9dbdb1	0.077021964
11	0x3e20ae32	0.1569145
12	0x3e3bc07e	0.18335149
13	0x3e207997	0.15671383
14	0x3e3d94ef	0.18513845
15	0x3e64499f	0.22293709
16	0x3e20e954	0.15714008
17	0x3e001099	0.12506332
18	0x3d2fdfcb	0.042938035
19	0x3dc14ba5	0.09438256
20	0x3dad6d12	0.08468069
21	0x3e6beb57	0.23038994
22	0x3e59751c	0.2123608
23	0x3e82696f	0.25471064
24	0x3e389435	0.18025286
25	0x3e05e319	0.13074912
26	0x3e03b41e	0.12861678
27	0x3db8cbe3	0.09023263
28	0x3d91984a	0.07109125
29	0x3e25fdd0	0.16210103
30	0x3e309d7f	0.1724758
31	0x3e269432	0.1626747
32	0x3e71b85d	0.23605485
33	0x3e7fda48	0.24985611
34	0x3e77892d	0.24173422
35	0x3e44a3b2	0.1920307
36	0x3d86c94c	0.06581363
37	0x3dbf716c	0.093478054
38	0x3dec0e9f	0.11526226
39	0x3defe453	0.11713471
40	0x3e290e79	0.16509427
41	0x3e0e1f93	0.13879232
42	0x3e7260e7	0.23669778
43	0x3e2d3ae6	0.16916999
44	0x3e3bbdfc	0.18334192
45	0x3d9a8072	0.0754403
46	0x3d29bf91	0.041442458
47	0x3d559245	0.052141447
48	0x3de65428	0.1124652
49	0x3de4f6e3	0.111799024
50	0x3e0d0141	0.1377001
51	0x3e36cfad	0.1785266
52	0x3e2ca676	0.16860375
53	0x3dfec6b9	0.12440247
54	0x3d06e5ad	0.03293388
55	0x3db862d7	0.09003227
56	0x3c69dbef	0.014273628
57	0x3db79590	0.08964074
58	0x3d96a1d7	0.07355087
59	0x3e13a341	0.14417745
60	0x3de8b90d	0.11363421
61	0x3da5a5c9	0.08088262
62	0x3d6231b9	0.0552232
63	0x3db2c786	0.08729462
64	0x3daa2d67	0.08309441
65	0x3c1eb015	0.009685536
66	0xbba8d59a	-0.0051524164
67	0x3c9472f5	0.018121222
68	0x3df1229a	0.11774178
69	0x3d3f729a	0.046740152
70	0x3d92d7b0	0.071700454
71	0x3e0310b3	0.12799339
72	0x3d03fac7	0.03222158
73	0x3c9cc921	0.019138874
74	0xbd87db1b	-0.06633588
75	0x3b129430	0.0022366159
76	0x3c125ca0	0.008933216
77	0x3d36c504	0.044621482
78	0x3c69bb20	0.0142658055
79	0xbd1a6598	-0.037694544
80	0x3d8ce72d	0.06880031
81	0xbdc395e2	-0.09550072
82	0xbd063d8d	-0.032773543
83	0xbd12dcfc	-0.03585528
84	0xbd7e5314	-0.06209095
85	0xbdc081e3	-0.09399774
86	0xbdd9bb05	-0.10631374
87	0xbd0782b5	-0.033083636
88	0xbd3cba92	-0.046076365
89	0xbd9180c3	-0.071046375
90	0xbd36fa8a	-0.044672526
91	0xbd85a5f0	-0.06525791
92	0xbce58dc1	-0.028021695
93	0xbd335b76	-0.043788396
94	0xbde9454b	-0.1139017
95	0xbd98a14d	-0.07452641
96	0xbd9a2db7	-0.07528251
97	0xbd9b8197	-0.07593077
98	0xbdf1cf30	-0.11807096
99	0xbd958bb0	-0.07302034
100	0xbdd22d7c	-0.10262582
101	0xbd2cf793	-0.042228293
102	0xbdfc7663	-0.12327268
103	0xbd4d5258	-0.050127357
104	0xbdcd514b	-0.10025271
105	0xbda14473	-0.07874384
106	0xbd3977a0	-0.0452801
107	0xbd983125	-0.074312486
108	0xbcb55ca2	-0.022138897
109	0xbdf66419	-0.12030811
110	0xbdd3c2f7	-0.10339921
111	0xbd855897	-0.06511038
112	0xbe32a4cc	-0.17445678
113	0xbd6a3f82	-0.057189472
114	0xbe1154cd	-0.14192505
115	0xbd5f5196	-0.054521166
116	0xbe0b501c	-0.13604778
117	0xbaba4d7f	-0.001421377
118	0xbda95296	-0.08267705
119	0xbd81ee08	-0.06344229
120	0xbdea6d88	-0.11446673
121	0xbdcba573	-0.09943666
122	0xbe18696a	-0.14883962
123	0xbdd3cc07	-0.103416495
124	0xbe20782b	-0.1567084
125	0xbce29d0b	-0.027662775
126	0x3d1a86d2	0.03772623
127	0xbd8db340	-0.06918955
128	0xbdb4a703	-0.088209175
129	0xbe349025	-0.17633112
130	0xbd828a44	-0.06374028
131	0xbe13bfe9	-0.14428677
132	0xbe1f1326	-0.15534648
133	0xbdb54d18	-0.08852595
134	0xbd45fa93	-0.04833467
135	0xbc7ec1cd	-0.015549135
136	0xbd45b221	-0.04826558
137	0xbd76a670	-0.06021732
138	0xbd84cd92	-0.06484522
139	0xbe0a7f3f	-0.13525103
140	0xbde611a1	-0.11233831
141	0xbd755c5d	-0.059902538
142	0xbdaa57e2	-0.083175436
143	0xbdc5f7db	-0.09666415
144	0xbd0037bb	-0.03130315
145	0xbd675012	-0.056472845
146	0xbc28b0bd	-0.010296044
147	0xbdbfd74c	-0.093672365
148	0xbe022ce5	-0.12712438
149	0xbdcf279a	-0.10114975
150	0xbdfce2f1	-0.12347973
151	0xbdd65d1c	-0.10466978
152	0xbcbeacee	-0.023275819
153	0x3d840f7b	0.06448265
154	0xbcd636b2	-0.026149128
155	0xbd60e5a4	-0.054906502
156	0xbc755bd3	-0.014975506
157	0xbd7098dc	-0.058739528
158	0xbb2563a2	-0.0025236388
159	0xbd2899ee	-0.041162424
160	0xbdc28d2c	-0.09499583
161	0xbdb04399	-0.08606643
162	0xbd5898e5	-0.052880187
163	0xbb8c8909	-0.004288797
164	0xbd675e2f	-0.056486305
165	0xbd73e618	-0.059545606
166	0xbcc2b4f9	-0.023767935
167	0xbca95621	-0.020670952
168	0xbdced22e	-0.10098682
169	0xbdd0f856	-0.10203616
170	0xbcad22dc	-0.021134786
171	0xbc17ba3d	-0.009260711
172	0xbbf4169f	-0.0074489857
173	0xbce2a21d	-0.027665192
174	0xbdac5b41	-0.08415843
175	0xbd89c460	-0.06726909
176	0xbd0e7043	-0.03477503
177	0xbe007ce6	-0.12547645
178	0xbe0db231	-0.13837506
179	0xbdd046c5	-0.10169748
180	0xbd6c7ef6	-0.057738267
181	0xbc728137	-0.014801315
182	0xbaff3f7c	-0.0019473876
183	0x3cc8c59d	0.024508292
184	0xbc84db04	-0.016217716
185	0xbdfc5156	-0.12320201
186	0xbe05adb7	-0.13054548
187	0xbe2b7939	-0.16745462
188	0xbe29cedc	-0.16582817
189	0xbd29ce47	-0.041456487
190	0x3cbd2e7b	0.023093453
191	0xbd4ef085	-0.050522346
192	0xba3c6cbc	-0.00071878335
193	0xbd7ea283	-0.062166702
194	0xbdd1c6ab	-0.10242971
195	0xbdf0625a	-0.11737509
196	0xbda2a7e0	-0.07942176
197	0xbdd26fde	-0.10275243
198	0xbd807964	-0.062731534
199	0xbbf8219e	-0.007572367
200	0xbc595c59	-0.013266646
201	0xbe083350	-0.13300824
202	0xbd24a6f3	-0.040198278
203	0xbdeae806	-0.11470036
204	0xbd09501c	-0.033523664
205	0xbdd0eff3	-0.10202017
206	0xbde73751	-0.11289848
207	0x3cb5ab15	0.022176305
208	0xbb910966	-0.004426169
209	0x3ba8404c	0.005134618
210	0xbd6debcc	-0.0580862
211	0x3a67e946	0.0008846711
212	0xbdab7143	-0.08371212
213	0xbd2c899c	-0.042123422
214	0xbdad6fff	-0.08468627
215	0xbc759d96	-0.014991185
216	0xbcdc8dde	-0.026923116
217	0xbd571614	-0.05251129
218	0xbd26cf5f	-0.04072511
219	0x3ca3ca27	0.019993855
220	0x3cd78b6a	0.026311595
221	0xbd4066fc	-0.046973214
222	0x3cbc8d85	0.0230167
223	0x3d284e1f	0.041090127
224	0x3c59800c	0.013275158
225	0xbcb1dcf0	-0.021711797
226	0xbd0006e2	-0.031256564
227	0xbd4c5cae	-0.049893074
228	0xbc48a85b	-0.01224717
229	0x3d2272ff	0.03966045
230	0x3d6e7ba9	0.0582234
231	0xbc8bed77	-0.017081005
232	0x3dcd66f5	0.10029403
233	0xbc705a92	-0.014670031
234	0xbc6eee8f	-0.014583244
235	0xbd386bc2	-0.04502464
236	0x3c311cd1	0.010810093
237	0x3d1eb7eb	0.038749617
238	0x3d66bfdc	0.056335315
239	0x3c561ee4	0.013068888
240	0x3d6534e4	0.055958644
241	0x3bdf57da	0.0068158926
242	0x3d87d39e	0.0663216
243	0xbe2cfe4d	-0.16893883
244	0xbca37244	-0.019951947
245	0xbe1d7bb3	-0.15379219
246	0xbe29d521	-0.16585208
247	0xbcfac072	-0.030609343
248	0xbd93980f	-0.07206737
249	0xbcc5dec1	-0.024154069
250	0x3d96d992	0.07365717
251	0xbc1b9684	-0.009496335
252	0xbcbd5d07	-0.023115648
253	0xbd13c9f0	-0.036081254
254	0xbdab2d1a	-0.08358212
255	0xbdc6a894	-0.097001225

downsampler.1.bias f4 [8]
0	0xbc95b067	-0.018272592
1	0xbc0e17ac	-0.008672636
2	0x3d1c2cb3	0.038128566
3	0xbd0dd09e	-0.03462278
4	0xbc87022b	-0.016480526
5	0xbd5a39ab	-0.053277653
6	0x3d14496f	0.036202844
7	0xbcca048a	-0.024660368

downsampler.2.weight f4 [8]
0	0x3ef258e8	0.47333455
1	0x3df86ada	0.12129755
2	0x3f4abc89	0.7919393
3	0x3e9927b2	0.29913098
4	0x3e2cec19	0.16886939
5	0x3e8c0f2e	0.2735533
6	0x3ea8c6e9	0.32964256
7	0x3e5c3e2d	0.21508093

downsampler.2.bias f4 [8]
0	0x3e899a0e	0.26875347
1	0xbdb689dc	-0.08913013
2	0x3f40de2a	0.75338995
3	0x3e87b199	0.26502684
4	0x3dfe81c3	0.12427094
5	0x3db57cd2	0.08861698
6	0x3ea29c40	0.31759834
7	0x3e853484	0.2601663

downsampler.5.weight f4 [16, 8, 3, 3]
0	0x3de600db	0.11230632
1	0x3d87d7a0	0.06632924
2	0xbc81d98a	-0.015850801
3	0x3bb93715	0.0056523182
4	0xbce1a577	-0.02754472
5	0xbc7e4e3a	-0.01552158
6	0xbdfe73e7	-0.1242445
7	0x3c7a5cd6	0.015280923
8	0xbb7bfc12	-0.0038449806
9	0x3d8752a0	0.06607556
10	0xbe5e91cf	-0.21735309
11	0xbde47f6a	-0.11157115
12	0xbe2179d6	-0.15769133
13	0xbe2b3993	-0.16721182
14	0xbc0eb90c	-0.008711111
15	0x3b82a97f	0.0039874907
16	0xbd3b379f	-0.04570734
17	0xbdb6e2b9	-0.08929963
18	0xbc105e50	-0.008811548
19	0x3dd08110	0.10180867
20	0x3de3d5f4	0.11124793
21	0x3e0aabb5	0.13542064
22	0x3e17e1ec	0.14832276
23	0xbd2d5bf7	-0.042324033
24	0xbd2cbec4	-0.042174116
25	0xbe3df056	-0.18548712
26	0xbe209b04	-0.15684134
27	0xbb96ec3a	-0.004605797
28	0x3e160419	0.1465
29	0x3e87b6a0	0.2650652
30	0x3d4842b2	0.04889173
31	0x3d958a7b	0.07301804
32	0xbdf4df4e	-0.119566545
33	0xbd49252c	-0.049107715
34	0xbe6403c8	-0.22267067
35	0xbdaa8a8f	-0.08327209
36	0xbe02152a	-0.12703386
37	0xbeb153d2	-0.34634262
38	0xbe21225e	-0.15735766
39	0xbc7757f0	-0.0150966495
40	0x3bed2b77	0.0072378474
41	0x3cfb3640	0.030665517
42	0x3d29f633	0.04149456
43	0x3dc5e631	0.09663046
44	0xbd4b5cf5	-0.049649198
45	0xbdd95388	-0.106116354
46	0xbe67f9ca	-0.2265388
47	0x3c7fae66	0.015605545
48	0xbe89b0cf	-0.26892707
49	0x3c8120a3	0.015762633
50	0x3e90225f	0.28151223
51	0xbe04d781	-0.12972833
52	0x3e278c20	0.16362047
53	0x3dfe0166	0.124026105
54	0xbe2850de	-0.16437098
55	0xbea7b4cd	-0.32755128
56	0xbe461c3a	-0.19346705
57	0xbd02d3e6	-0.031940363
58	0xbdc85938	-0.09782642
59	0x3e11f8d8	0.14255083
60	0x3cecdaeb	0.028912982
61	0x3ecaa142	0.39576155
62	0x3db69cf5	0.08916656
63	0xbbc00c9b	-0.0058608777
64	0xbd73295e	-0.059365623
65	0x3d15e942	0.036599405
66	0x3c31c7a5	0.010850822
67	0x3bdd0e58	0.0067460947
68	0xbd29960a	-0.041402854
69	0xbd4e5ab1	-0.05037946
70	0xbad88f8e	-0.0016522275
71	0x3deea509	0.11652572
72	0xbd5ad92b	-0.053429764
73	0x3e2ee20e	0.1707842
74	0xbcb97d2d	-0.022642696
75	0xbd188bfc	-0.037242875
76	0x3b9a8f38	0.00471678
77	0xba8916ed	-0.0010459103
78	0xbd38c788	-0.045112163
79	0x3d93fdff	0.0722618
80	0x3e0fce05	0.14043434
81	0x3e232989	0.15933813
82	0x3e0d77a2	0.13815168
83	0x3e0ae91b	0.13565485
84	0x3dc37da1	0.09545446
85	0x3ca72a14	0.020405807
86	0x3e05edca	0.1307899
87	0xbd3c5b38	-0.04598543
88	0xbaefaeb8	-0.0018286323
89	0xbda0b9b2	-0.078479186
90	0xbd9e22ae	-0.077214584
91	0x3b1fb51f	0.0024369431
92	0x3dbb01b5	0.09131185
93	0xbe044b99	-0.12919463
94	0x3c9096ef	0.017650096
95	0x3e20a6c0	0.1568861
96	0xbe60c3be	-0.2194967
97	0x3dabac0f	0.08382427
98	0x3d35ff8e	0.04443317
99	0xbdd084ea	-0.10181601
100	0xbe5458c7	-0.20736991
101	0x3dae7904	0.08519176
102	0xbe5c95af	-0.21541475
103	0xbe1cb1d6	-0.15302214
104	0xbdcee54a	-0.10102327
105	0xbe67dc57	-0.22642647
106	0xbdf1d8c6	-0.118089244
107	0x3d979870	0.07402122
108	0xbe3e1ec6	-0.18566427
109	0x3d39cb2d	0.04535978
110	0xbe5880b8	-0.21142852
111	0x3c1b00f0	0.009460673
112	0xbe11537e	-0.14192006
113	0xbe1be100	-0.1522255
114	0x3d2e319f	0.04252779
115	0xbe82a7ba	-0.2551859
116	0xbe538cf6	-0.20659241
117	0xbddd2f42	-0.10800029
118	0x3e6c054c	0.23048896
119	0x3e7bdd5c	0.2459616
120	0x3dc04449	0.09388024
121	0x3ddd6017	0.10809343
122	0x3e11279e	0.14175269
123	0x3d3662d7	0.044527855
124	0x3d01a90d	0.03165536
125	0x3d60d538	0.05489084
126	0x3e110afe	0.1416435
127	0x3ed54242	0.41652113
128	0x3e5d1b57	0.2159246
129	0x3eaa66f9	0.33281687
130	0x3e4ca2dd	0.19984002
131	0xbd93ce61	-0.07217098
132	0x3e1bfed6	0.15233931
133	0x3e090587	0.13381015
134	0x3d3ca072	0.04605145
135	0xbe046f67	-0.12933122
136	0x3d007165	0.03135814
137	0x3e80e095	0.25171342
138	0xbdf579ee	-0.11986147
139	0x3e0ae7c7	0.13564979
140	0x3d9470c5	0.072480716
141	0xbd4cf0c8	-0.050034314
142	0x3dc5c3a9	0.0965646
143	0x3e0e74c4	0.1391173
144	0x3e2e1113	0.16998701
145	0xbccda402	-0.02510262
146	0xbe508ae3	-0.20365481
147	0xbdd73005	-0.10507206
148	0x3e2a4db9	0.16631211
149	0x3e0cfd50	0.13768506
150	0xbdb7de2d	-0.089779235
151	0xbdace838	-0.0844273
152	0xbc281424	-0.010258708
153	0xbe16b5cd	-0.14717789
154	0xbc634916	-0.0138724055
155	0xbdaecf71	-0.0853566
156	0x3d892ffd	0.06698606
157	0xbd0e01c0	-0.034669638
158	0x3c9117eb	0.0177116
159	0x3e120337	0.14259039
160	0x3d4a25c0	0.049352407
161	0x3de31091	0.11087144
162	0xbe5e5ea1	-0.21715786
163	0x3d16f688	0.036856204
164	0x3e006158	0.12537134
165	0x3e905dc3	0.28196535
166	0xbe84da37	-0.25947735
167	0xbdea74c1	-0.1144805
168	0xbcd0f62b	-0.025508007
169	0x3e217000	0.15765381
170	0xbd0ac058	-0.03387484
171	0x3c88b8f9	0.016689764
172	0xbe665184	-0.22492033
173	0x3dd28efe	0.1028118
174	0xbdf36b7c	-0.118857354
175	0xbd4faf94	-0.050704554
176	0xbd548e2c	-0.0518934
177	0x3d8b5016	0.068023846
178	0xbb23e664	-0.002500915
179	0xbd3d3446	-0.04619243
180	0xbd5282de	-0.051394336
181	0x3daa9b7e	0.08330439
182	0xbde313b1	-0.1108774
183	0xbde8152c	-0.11332163
184	0x3d571e1f	0.05251896
185	0x3deac0b6	0.11462538
186	0xbd3db024	-0.04631056
187	0xbdc577f4	-0.0964202
188	0x3dbbc65a	0.09168692
189	0x3ba27cef	0.004958741
190	0xbe1f1b80	-0.15537834
191	0xbda0c3d8	-0.07849854
192	0x3dfcdf0b	0.123472296
193	0x3dec2f91	0.1153251
194	0xbdee6ae0	-0.116414785
195	0xbe2bd5e9	-0.16780819
196	0x3c355bf4	0.011069287
197	0x3e1a7784	0.15084654
198	0xbdeb45a1	-0.1148789
199	0x3dd07229	0.10178024
200	0x3ddfdc58	0.10930699
201	0x3d29cfdb	0.041457992
202	0xbe75411c	-0.23950619
203	0xbc5001d6	-0.01269575
204	0x3d9462ee	0.07245432
205	0x3d2ac056	0.041687332
206	0xbe05fcc8	-0.1308471
207	0x3e1ac070	0.15112472
208	0x3bd8a617	0.0066115963
209	0xbd2e909b	-0.042618375
210	0x3da45a89	0.08025081
211	0x3ba787f6	0.0051126434
212	0x3d4143da	0.04718385
213	0xbe4a7d6d	-0.19774409
214	0x3d437e39	0.047727797
215	0xbc931b56	-0.01795737
216	0xbe9bf775	-0.30462232
217	0xbe7c3a5a	-0.24631634
218	0xbdeeb270	-0.11655128
219	0x3d9b8076	0.07592861
220	0xbdec0b36	-0.11525576
221	0x3d52c086	0.051453136
222	0x3e54b91f	0.20773743
223	0x3ea28bc0	0.31747246
224	0x3e8fb813	0.28070125
225	0xbd04f8b6	-0.03246375
226	0x3e49ea70	0.19718337
227	0x3e9b55ae	0.30338806
228	0x3e3646af	0.17800401
229	0x3e13af34	0.14422303
230	0x3e8f1c22	0.2795115
231	0x3e365f32	0.17809752
232	0x3ea203ed	0.3164362
233	0x3e483771	0.19552399
234	0xbbe8e340	-0.0071071684
235	0xbd3fdbc8	-0.04684046
236	0xbc9a356c	-0.018824302
237	0x3cce3462	0.025171462
238	0x3d5f387c	0.054497227
239	0x3d72d614	0.059286192
240	0x3dac9a6b	0.084278904
241	0x3c8b7a68	0.017026141
242	0xbaf0340f	-0.0018326062
243	0xbd1f5bd6	-0.03890594
244	0xbd9fc99d	-0.078021266
245	0xbd83503f	-0.0641179
246	0xbd36fdeb	-0.04467575
247	0x3d03170b	0.032004397
248	0xbc88fe05	-0.016722688
249	0xbd8188cd	-0.06324921
250	0xbdf51f5f	-0.11968874
251	0x3d18c210	0.037294447
252	0xbdd320ce	-0.103089914
253	0xbd8b7ba7	-0.06810694
254	0x3c56ec1d	0.013117817
255	0xbd927cac	-0.071526855

downsampler.5.bias f4 [16]
0	0x3cfad44b	0.030618807
1	0xbda39793	-0.07987895
2	0xbc4622f3	-0.0120932935
3	0x3d665b1d	0.056239236
4	0x3d30182d	0.042991806
5	0xbc874d3d	-0.016516322
6	0x3cef91c9	0.02924432
7	0xbd2e51c6	-0.042558454
8	0x3c341adf	0.010992735
9	0xbd69b1e7	-0.057054427
10	0x3d591365	0.05299701
11	0x3d9a59ae	0.07536636
12	0x3d69cb75	0.057078797
13	0x3d78e094	0.06076105
14	0x3cfc9a58	0.030835316
15	0x3c01f401	0.00793171

downsampler.6.weight f4 [16]
0	0x3edd67f0	0.4324336
1	0x3f06d90a	0.52674925
2	0x3f1eb77a	0.61998713
3	0x3e8bb60a	0.27287322
4	0x3f1d56c9	0.6146055
5	0x3f3a95dd	0.72884923
6	0x3f564c4c	0.8371017
7	0x3af37e4e	0.001857707
8	0x3ecafff5	0.39648405
9	0x3edf7587	0.43644354
10	0x3f43c38a	0.76470244
11	0x3e7059e8	0.23471797
12	0x3f32b482	0.69806683
13	0x3f0b153e	0.5432929
14	0x3f219fc8	0.6313443
15	0x3eb55a1f	0.3542032

downsampler.6.bias f4 [16]
0	0xbcb47cb4	-0.02203212
1	0x3dc3a6e0	0.09553313
2	0xbdb4fed2	-0.088376656
3	0x3df8200e	0.12115489
4	0xbd86fff5	-0.06591789
5	0xbd82ec84	-0.06392768
6	0x3dab452c	0.08362803
7	0xbcc93a1e	-0.024563845
8	0x3e45ca5a	0.19315472
9	0xbd73fd20	-0.05956757
10	0x3f0a9ddc	0.54147124
11	0xbd04126b	-0.032244127
12	0xbddf228d	-0.10895262
13	0xbddb2308	-0.10700041
14	0x3d5cea15	0.053934176
15	0xbd1885f9	-0.03723714

downsampler.9.weight f4 [32, 16, 3, 3]
0	0x3dd964c1	0.106149204
1	0x3d9c80db	0.07641765
2	0xbd91f70a	-0.07127197
3	0xbe29f6b7	-0.1659802
4	0xbdb5f170	-0.08883941
5	0xbd0d622d	-0.034517456
6	0x3dd32291	0.103093274
7	0x3d7e2ac0	0.06205249
8	0xbcb68518	-0.02228026
9	0x3e0aa423	0.13539176
10	0x3e2c1433	0.1680458
11	0xbce50a33	-0.027958965
12	0xbcba6456	-0.022752922
13	0xbe031444	-0.128007
14	0xbe248088	-0.16064656
15	0xbdcdaf21	-0.10043169
16	0xbdef3f85	-0.11682037
17	0xbe6b5340	-0.22980976
18	0xbddd322a	-0.10800584
19	0xbd075cd0	-0.033047497
20	0xbdd0af07	-0.10189634
21	0x3d9f3efc	0.07775685
22	0xbbd364df	-0.0064512338
23	0x3d38895a	0.045052864
24	0x3d6967c0	0.05698371
25	0x3e0f3034	0.13983232
26	0xbde259e8	-0.110523045
27	0x3d5f8d31	0.05457801
28	0x3d9c47c9	0.076308794
29	0x3dd16441	0.102242
30	0x3ab1aa70	0.0013554823
31	0xbcde5321	-0.027139248
32	0x3d98647b	0.0744104
33	0xbc7eadca	-0.015544364
34	0xbc3870e2	-0.011257382
35	0x3d78646a	0.060642637
36	0x3db0a505	0.08625225
37	0xbe4943a3	-0.19654708
38	0xbe15b4a4	-0.1461969
39	0xbda89d68	-0.08233148
40	0xbcec9220	-0.028878272
41	0xbe029bcf	-0.12754749
42	0x3c03d404	0.008046154
43	0xbb31b44c	-0.0027115522
44	0x3c6e37fa	0.014539713
45	0x3e0da4c7	0.13832389
46	0x3de69a33	0.1125988
47	0xbd8e27a0	-0.069411516
48	0x3e4ea776	0.20181069
49	0xbd1103f3	-0.035404157
50	0xbddd6b98	-0.108115375
51	0x3deffee0	0.117185354
52	0x3dd62b1f	0.104574434
53	0xbad81e27	-0.0016488478
54	0x3da487d0	0.08033717
55	0xbcb89a9d	-0.022534663
56	0x3c7899e3	0.015173408
57	0x3c48672a	0.0122316275
58	0x3c5b18d7	0.0133726215
59	0x3df3d5e3	0.1190603
60	0xbe1e185a	-0.15438977
61	0x3d6f4af3	0.058421087
62	0xbb32ac6a	-0.0027263411
63	0x3d597049	0.0530856
64	0x3cf60ba8	0.030034855
65	0xbc8eaf1a	-0.01741748
66	0x3aaede23	0.0013341348
67	0x3c9b70fc	0.018974774
68	0xbcfc225a	-0.030778099
69	0x3d7ef6c9	0.06224707
70	0x3c940993	0.018070972
71	0xbd3b9e39	-0.04580519
72	0xbdf2478f	-0.11830055
73	0xbdcb2aac	-0.099202484
74	0x3d03cbc3	0.032176744
75	0x3dcf18c8	0.101121485
76	0x3d77554f	0.06038409
77	0x3e15b2ca	0.14618984
78	0x3dae524d	0.085117914
79	0x3e009040	0.12555027
80	0xbb790997	-0.00380001
81	0x3d77f591	0.060536925
82	0xbd3d0656	-0.04614862
83	0xbeb525fc	-0.35380542
84	0xbde69bff	-0.11260223
85	0xbeed9f67	-0.46410677
86	0xbec7fdbf	-0.3906078
87	0xbce8ff98	-0.02844219
88	0xbe38ea71	-0.18058182
89	0xbeb563a7	-0.3542759
90	0x3bb9c057	0.0056686806
91	0x3d3ceae8	0.04612246
92	0xbd0590f1	-0.03260893
93	0xbd1140f2	-0.035462327
94	0xbcd0d830	-0.025493711
95	0xbd14e973	-0.036355447
96	0xbe0031dd	-0.12519021
97	0xbdb6945d	-0.08915017
98	0x3dba92a4	0.09110001
99	0xbe3ea804	-0.1861878
100	0xbe697956	-0.22800192
101	0xbdf53bc4	-0.1197429
102	0xbe08f2d1	-0.13373877
103	0xbd4bf885	-0.049797554
104	0x3dd806bd	0.1054816
105	0x3d5219ff	0.051294323
106	0x3e22c853	0.1589673
107	0x3e3d0d5a	0.18462124
108	0xbd3cd879	-0.046104882
109	0x3c28b843	0.010297838
110	0xbdaf2826	-0.085525796
111	0xbe2d0f7c	-0.16900438
112	0xbcdf9f8e	-0.027297761
113	0xbd9b800a	-0.07592781
114	0xbd403d74	-0.046933606
115	0xbd8fa0b7	-0.07013076
116	0xbe08d7d8	-0.13363588
117	0xbd305f3c	-0.043059573
118	0xbc90f007	-0.017692579
119	0xbdec7981	-0.115466125
120	0x3c26c317	0.010178349
121	0xbe6c8096	-0.23095927
122	0xbe330b58	-0.17484796
123	0x3c51d6bb	0.012807543
124	0xbdfacb2e	-0.12245785
125	0xbe70a3c4	-0.23499972
126	0xbd1b829d	-0.03796636
127	0xbe42b136	-0.19012913
128	0x3de19e8d	0.11016569
129	0x3dbb5e83	0.09148886
130	0xbd385e52	-0.045011826
131	0x3da064de	0.07831739
132	0xbe3ce14f	-0.18445323
133	0x3d1668ef	0.036721166
134	0x3dd0af43	0.101896785
135	0x3da4e1be	0.080508694
136	0xbd85ac25	-0.065269746
137	0xbd1bb8d0	-0.038018048
138	0x3e272266	0.16321716
139	0xbed2b70b	-0.41155276
140	0xbe66245e	-0.2247481
141	0x3e0464c3	0.12929063
142	0xbdc67151	-0.09689582
143	0xbf102bcc	-0.5631683
144	0x3d8b3edc	0.06799099
145	0xbd261f17	-0.040556993
146	0xbdc948a8	-0.09828311
147	0x3e109a80	0.14121437
148	0x3d762f8f	0.06010395
149	0xbda431c7	-0.08017307
150	0x3da8fdaa	0.082515076
151	0xbd00892d	-0.03138082
152	0xbd267246	-0.040636323
153	0xbe36916a	-0.17828909
154	0x3e1388b3	0.14407615
155	0x3e9f23fa	0.31082135
156	0xbe352ceb	-0.17692916
157	0x3ed02a89	0.40657452
158	0x3e81a4ae	0.25320953
159	0xbe10b020	-0.14129686
160	0x3e86b480	0.26309586
161	0x3dff0005	0.124511756
162	0x3ce1f562	0.027582828
163	0xbcad5573	-0.02115891
164	0x3c69b57e	0.0142644625
165	0x3de18826	0.110122964
166	0xbe7da8f7	-0.24771486
167	0xbddd18e6	-0.107957646
168	0xbda07620	-0.078350306
169	0xbd311098	-0.043228716
170	0xbd2983bb	-0.041385394
171	0xbd341074	-0.043961003
172	0xbe04c378	-0.1296519
173	0xbcc6dbc8	-0.024274722
174	0xbe433cdd	-0.19066186
175	0x3e47fd4b	0.19530217
176	0xbc1b36de	-0.009473531
177	0xbd6f3f8f	-0.058410224
178	0xbcb37bec	-0.021909676
179	0xbb8f6598	-0.0043761246
180	0xbd8e4c46	-0.06948142
181	0xbbd9751a	-0.006636274
182	0xbd515bac	-0.051112816
183	0x3dc6a913	0.09700217
184	0x3e948e27	0.29014704
185	0x3e931dcc	0.2873367
186	0x3d6ebfc4	0.05828835
187	0x3e36e526	0.1786085
188	0xbcb2ccac	-0.02182611
189	0x3d82303e	0.06356858
190	0xbd54be67	-0.051939394
191	0xbd76a560	-0.060216308
192	0xbdc72417	-0.097236805
193	0xbe0bc1ee	-0.13648197
194	0xbc660816	-0.014040014
195	0xbd8cce69	-0.06875307
196	0x3d590060	0.052978873
197	0xbd92e3fd	-0.071723916
198	0x3b46df28	0.0030345414
199	0x3d374d07	0.044751193
200	0x3c8ee447	0.017442835
201	0x3cbd521e	0.023110446
202	0x3e13d9da	0.14438573
203	0x3da15b3a	0.07878728
204	0x3dade752	0.084913865
205	0x3e1c9829	0.1529242
206	0xbe1764a7	-0.1478449
207	0xbd55a216	-0.05215653
208	0x3d3350ba	0.04377816
209	0x3d4b6823	0.04965986
210	0xbd4ad544	-0.049519792
211	0x3cceca47	0.025242938
212	0x3d15d7f0	0.036582887
213	0x3d9a18f6	0.07524292
214	0x3db6e651	0.08930648
215	0xbcd644a9	-0.026155787
216	0x3c61b853	0.0137768565
217	0xbc0701e5	-0.008240198
218	0xbda29bae	-0.0793985
219	0xbdf4d532	-0.11954726
220	0xbe3fff67	-0.18749772
221	0xb9d95203	-0.0004145057
222	0xbdb6c429	-0.08924133
223	0x3d1c81dd	0.038209785
224	0xbda0fcb7	-0.078607015
225	0xbe13ed30	-0.14445949
226	0x3d7c82a7	0.061648037
227	0xbd66eac5	-0.056376237
228	0xbc33bd15	-0.010970374
229	0xbd11b744	-0.035575166
230	0xbde3f1ce	-0.11130105
231	0xbc13f78d	-0.009031189
232	0x3d8f8a5a	0.0700881
233	0x3d5adb0c	0.053431556
234	0x3e10b373	0.14130954
235	0xbdee097a	-0.11622901
236	0xbdea3d13	-0.1143743
237	0x3e349737	0.17635809
238	0xbe1aaf07	-0.1510583
239	0x3d366afc	0.044535622
240	0x3dd9b5f7	0.1063041
241	0xbd079145	-0.033097524
242	0xbdec9447	-0.11551719
243	0x3df912ed	0.12161813
244	0x3ddc9719	0.10771007
245	0xbc134087	-0.0089875525
246	0x3e148694	0.14504462
247	0xbcb2c3f9	-0.021821963
248	0xbd52d029	-0.05146805
249	0x3e18d8f2	0.14926508
250	0xbe06f96e	-0.13181087
251	0xbd739c95	-0.0594755
252	0x3e239b23	0.15977149
253	0xbdbf98e5	-0.09355334
254	0xbd1e4e1c	-0.03864871
255	0x3e4153f2	0.18879679

downsampler.9.bias f4 [32]
0	0xbd254303	-0.04034711
1	0xbd8051b5	-0.062655844
2	0x3c7ddc24	0.01549438
3	0xbcf57171	-0.02996132
4	0xbd9ce3b1	-0.07660616
5	0x3d4951fa	0.049150445
6	0x3d6a6ce2	0.057232745
7	0xbd9a0a16	-0.07521455
8	0x3d988143	0.0744653
9	0x3c2bcd4d	0.010485959
10	0x3d366947	0.044533994
11	0x3d992231	0.074772246
12	0xbb4acd2b	-0.0030945044
13	0xbcca19e8	-0.024670556
14	0x3d0adb26	0.033900402
15	0x3c23e2a3	0.010002765
16	0x3d9fd17f	0.0780363
17	0xbd687cf5	-0.056759793
18	0x3c30a9a1	0.01078263
19	0x3bcdda4e	0.0062821275
20	0xbcd867f7	-0.026416762
21	0xbd879713	-0.06620612
22	0xbc28cb85	-0.010302429
23	0xbd3d68ba	-0.046242453
24	0x3d89cdf3	0.06728735
25	0x3d3035e4	0.043020144
26	0xbda6241a	-0.081123546
27	0xbd9f628f	-0.077824704
28	0x3c4638a4	0.012098465
29	0x3cf62559	0.030047106
30	0x3bc6e02b	0.0060692034
31	0xbd85c21d	-0.06531165

downsampler.10.weight f4 [32]
0	0x3f509f40	0.81492996
1	0x3f004efb	0.50120515
2	0x3eee52b9	0.46547487
3	0x3ef68143	0.48145494
4	0x3ecdb544	0.40177357
5	0x3f047d1e	0.51753414
6	0x3f57e25a	0.8432976
7	0x3f1b420e	0.60647666
8	0x3f2d14df	0.6760997
9	0x3f34b64e	0.70590675
10	0x3f1e20f7	0.6176905
11	0x3f3ea18c	0.7446525
12	0x3efb83ce	0.49123996
13	0x3ee2498c	0.44196737
14	0x3f471f7b	0.7778241
15	0x3f279997	0.65468735
16	0x3f1818e1	0.5941296
17	0x3f028180	0.5097885
18	0x3f39fea2	0.72654164
19	0x3f5c31f7	0.8601374
20	0x3f0cabdb	0.5494973
21	0x3f42f65c	0.76157165
22	0x3ef41899	0.47675017
23	0x3f343e4a	0.70407546
24	0x3f26b4d2	0.6511966
25	0x3ef16d3d	0.47153655
26	0x3f318775	0.69347316
27	0x3f11a4f3	0.5689232
28	0x3efa27b9	0.4885843
29	0x3ee4877f	0.44634625
30	0x3f26540e	0.6497201
31	0x3f83356e	1.025068

downsampler.10.bias f4 [32]
0	0xbd2fc561	-0.042912845
1	0x3cef10df	0.02918285
2	0xbd31c2d9	-0.04339871
3	0xbddff4e3	-0.1093538
4	0x3e00273d	0.12514968
5	0xbe2373fc	-0.15962213
6	0x3e19623a	0.14978877
7	0xbdc8ca2f	-0.098041885
8	0xbd4bb633	-0.049734306
9	0x3c17898a	0.0092491
10	0xbd35118b	-0.044206183
11	0xbc4d5f9b	-0.012535001
12	0xbd901504	-0.070352584
13	0x3dcd91a7	0.100375466
14	0x3e301b99	0.17198028
15	0xbd564fcd	-0.052322198
16	0x3dc70dff	0.097194664
17	0x3b4acd95	0.003094529
18	0x3d8a03fd	0.06739042
19	0xbd232ad6	-0.039835773
20	0xbdbe4511	-0.09290517
21	0x3d978aed	0.07399545
22	0x3d378395	0.04480322
23	0xbd5b35b9	-0.05351803
24	0xbc7de5d1	-0.015496687
25	0x3e036694	0.12832099
26	0x3bc6eac5	0.006070467
27	0xbdb4bcf8	-0.088251054
28	0xbd12288d	-0.035683203
29	0xbd38c027	-0.045105126
30	0x3d0483e7	0.032352354
31	0xbd8f6657	-0.07001942

residual.0.resblock.1.weight f4 [32, 32, 3, 3]
0	0x3e14b181	0.14520837
1	0xbcac7434	-0.021051504
2	0xbde883d7	-0.113532715
3	0x3e16bf69	0.14721455
4	0x3d7d9b53	0.061915707
5	0xbd53298a	-0.051553287
6	0x3d4c50ae	0.04988163
7	0x3dae1e3f	0.08501863
8	0x3d268949	0.04065827
9	0xbdfdcf4a	-0.12393053
10	0xbdb0c8fa	-0.08632083
11	0xbdeac102	-0.114625946
12	0x3dc705a3	0.09717872
13	0x3d64ae7d	0.055830467
14	0xbe7ea3ec	-0.24867219
15	0x3b86c737	0.0041131037
16	0x3d0bc34e	0.034121804
17	0xbd88aba4	-0.06673363
18	0xbe1eaafa	-0.1549491
19	0x3e90bcdb	0.28269085
20	0x3e130d53	0.14360552
21	0x3df7bae3	0.12096193
22	0xbe4474a4	-0.1918512
23	0xbe7f3206	-0.24921426
24	0x3a32f19d	0.00068261643
25	0xbe5b354a	-0.21407047
26	0xbe82e5c1	-0.25565913
27	0x3cb08cff	0.021551607
28	0xbe15c843	-0.14627175
29	0xbd70f4ad	-0.05882709
30	0xbd023c9c	-0.031796083
31	0x3c61e374	0.013787139
32	0x3d703fd2	0.058654614
33	0x3e0e05f7	0.13869463
34	0x3e1b4a11	0.15164973
35	0x3e530a83	0.20609479
36	0x3d79912b	0.06092946
37	0x3e542234	0.20716172
38	0x3e06a9d9	0.13150729
39	0x3de5ecf2	0.11226834
40	0xbd2e6c4d	-0.042583752
41	0xbd06f395	-0.03294714
42	0x3ea7d0d1	0.32776502
43	0xbe92b973	-0.28657112
44	0xbf1a9a26	-0.6039146
45	0x3d242040	0.04006982
46	0x3d8722d7	0.06598442
47	0xbe42c94b	-0.190221
48	0x3b074b9c	0.0020644432
49	0x3e56c2d0	0.20972753
50	0xbd8924b3	-0.06696453
51	0xbe43ce89	-0.19121756
52	0x3c626fbc	0.013820585
53	0x3e2ce0e3	0.16882662
54	0xbe030c7a	-0.12797728
55	0xbd3b0a03	-0.045663845
56	0xbe1d9758	-0.15389764
57	0xbd1d709b	-0.038437467
58	0x3d329aa8	0.043604523
59	0x3d91c073	0.07116785
60	0xbdb19731	-0.086714156
61	0x3d1befb5	0.0380704
62	0xbdb19f07	-0.0867291
63	0xbd94a914	-0.072588116
64	0x3d2a3b2d	0.04156034
65	0x3dd32af4	0.10310927
66	0x3c2d6821	0.010583908
67	0xbd8a26f7	-0.06745713
68	0xbe3e721c	-0.18598217
69	0xbc9aa529	-0.018877583
70	0xbd9b7d23	-0.07592227
71	0xbe63cfb7	-0.22247206
72	0xbdc8c81b	-0.09803792
73	0xbe131483	-0.14363293
74	0x3d848371	0.06470383
75	0x3d8d2771	0.068922885
76	0x3d97a2cb	0.07404097
77	0xbc9481b3	-0.018128252
78	0xbdc71937	-0.09721606
79	0x3e283726	0.16427287
80	0xbb909189	-0.0044118804
81	0xbe33cedc	-0.1755938
82	0x3e172136	0.14758763
83	0x3dbe2513	0.09284415
84	0x3ddb785b	0.10716315
85	0x3e0e35f7	0.13887773
86	0xbcddd12d	-0.027077282
87	0x3e3c919b	0.18414919
88	0xbda5fde8	-0.081050694
89	0xbcb22201	-0.02174473
90	0x3d6f8e66	0.05848541
91	0xbcbd6210	-0.023118049
92	0xbb41b6eb	-0.002955849
93	0x3d3f4227	0.046693947
94	0xbe351b3d	-0.17686172
95	0xbd563db1	-0.052304927
96	0xbd3758d2	-0.04476244
97	0xbdc6cfed	-0.097076274
98	0xbdfc0484	-0.12305549
99	0x3d121fcd	0.03567486
100	0x3d8ffd44	0.070307285
101	0x3d668892	0.056282587
102	0xbc6d2ddd	-0.014476267
103	0x3db385bc	0.08765742
104	0xbcdcef5d	-0.026969606
105	0x3e3cf258	0.18451822
106	0xbd8ee4b3	-0.06977215
107	0x3d94ab05	0.07259182
108	0xbb22e7fc	-0.0024857512
109	0xbccdb54f	-0.025110869
110	0xbe9635e4	-0.2933799
111	0x3c05f693	0.008176464
112	0x3d917dad	0.07104049
113	0xbe3f30f1	-0.18671013
114	0xbe5682e4	-0.20948368
115	0x3e0ff894	0.14059669
116	0x3e065f79	0.13122357
117	0xbe59468a	-0.21218315
118	0x3d603e8e	0.054747157
119	0x3cc785eb	0.02435585
120	0x3d39c906	0.045357727
121	0x3dfde68d	0.1239749
122	0xbc415113	-0.011799115
123	0x3d715021	0.058914308
124	0x3d4cf992	0.050042696
125	0xbd53e696	-0.051733576
126	0xbd61a58e	-0.055089526
127	0xbe525b1a	-0.20542565
128	0x3e1ddf96	0.15417323
129	0x3d5d6346	0.054049753
130	0x3cc61320	0.024179041
131	0xbdc3b2c7	-0.095555834
132	0x3d3407e8	0.043952852
133	0x3e010f97	0.12603603
134	0xbe8557fa	-0.26043683
135	0xbd871166	-0.06595115
136	0xbdcc8ae4	-0.09987429
137	0xbcc72142	-0.02430785
138	0xbd2872df	-0.041125175
139	0x3dbf5c1c	0.0934374
140	0x3ddb8c35	0.10720102
141	0xbc0194d6	-0.00790902
142	0x3e1173c3	0.14204316
143	0x3dc0f07c	0.09420869
144	0xbd21420c	-0.039369628
145	0x3caddd38	0.02122365
146	0xbd2c99c4	-0.04213883
147	0xbe55f42c	-0.20893925
148	0x3d2dbdf0	0.042417467
149	0x3d5b1c57	0.053493824
150	0xbd2f8210	-0.042848647
151	0x3d5a3e2e	0.053281955
152	0x3dbec7eb	0.09315475
153	0xbb6fbec7	-0.0036582218
154	0xbe0ab36c	-0.13545007
155	0xbd675c18	-0.05648431
156	0xbe318050	-0.17334104
157	0x3db94fd5	0.0904843
158	0x3dcf24cf	0.101144426
159	0xbda310d0	-0.07962191
160	0x3e0a2f22	0.13494542
161	0xbc70467e	-0.014665244
162	0x3dca6e38	0.09884304
163	0x3da9f255	0.08298174
164	0xbdb6ff73	-0.08935442
165	0xbbbff63f	-0.0058582122
166	0x3d07cca0	0.03315413
167	0xbdb07392	-0.08615793
168	0xbd8d9fa1	-0.069152124
169	0xbdad98e6	-0.08476429
170	0x3d2d5011	0.042312685
171	0xbc2261db	-0.009911026
172	0x3d847643	0.06467869
173	0x3c7881ad	0.015167636
174	0xbd1bd92d	-0.03804891
175	0x3d6e5e2e	0.058195285
176	0x3dad3f79	0.08459372
177	0x3e008766	0.1255165
178	0xbcc917ff	-0.024547575
179	0xbce967aa	-0.028491814
180	0xbd0d7293	-0.034533095
181	0xbe3e5b0a	-0.18589416
182	0xbd8e0f62	-0.06936528
183	0xbe33e380	-0.17567253
184	0xbd569c90	-0.052395403
185	0x3bd4a6df	0.006489619
186	0x3bf8bd09	0.007590894
187	0x3dcf561d	0.10123847
188	0x3da3ab82	0.07991697
189	0x3dc951f4	0.098300844
190	0xbd07b054	-0.033127144
191	0x3c577065	0.013149356
192	0x3e8a3a7e	0.2699775
193	0xbd3636ca	-0.044485845
194	0xbce5b3f3	-0.028039908
195	0xbd0a16e6	-0.033713244
196	0xbd4ce77c	-0.05002545
197	0xbcf0e691	-0.029406818
198	0xbe91764e	-0.28410572
199	0xbdfab3b5	-0.12241308
200	0x3c97f410	0.018548995
201	0x3dc0f716	0.09422128
202	0x3db27855	0.08714358
203	0xbceb9af7	-0.028760416
204	0x3c7724d7	0.015084467
205	0x3dc99e2c	0.09844622
206	0x3c82150a	0.015879173
207	0xbd3f390c	-0.046685264
208	0xbd4db102	-0.050217636
209	0x3c4e5f33	0.012595939
210	0x3d7f1720	0.062277913
211	0x3d9d61d8	0.07684678
212	0xbe08eda6	-0.13371906
213	0x3da7444f	0.08167326
214	0x399cbfee	0.00029897637
215	0x3ca6bf46	0.020354878
216	0xbe79cc6a	-0.24394384
217	0xbde8579d	-0.11344836
218	0x3d92115b	0.071322165
219	0xbbdc1a93	-0.006717035
220	0x3e046813	0.12930326
221	0x3d0f7511	0.035023753
222	0x3e0ec1c6	0.13941106
223	0xbd1c5de1	-0.038175467
224	0xbe26040c	-0.16212481
225	0x3e5650bb	0.20929234
226	0x3dad388d	0.08458052
227	0xbc8d060f	-0.017214803
228	0xbccf7bd6	-0.025327604
229	0x3de30029	0.11084015
230	0x3caef4fe	0.021357056
231	0xbe66a0dd	-0.22522302
232	0xbd70c12a	-0.058777966
233	0x3e3d8172	0.1850641
234	0xbdd6abd1	-0.1048199
235	0xbab1a87e	-0.0013554243
236	0x3de18b3c	0.11012885
237	0x3d940229	0.072269745
238	0xbd6861a7	-0.056733754
239	0xbe065c23	-0.13121085
240	0x3e76660b	0.24062364
241	0x3dfde80c	0.12397775
242	0xbe3263dc	-0.17420906
243	0xbdd75c41	-0.10515643
244	0xbe348399	-0.17628326
245	0xbdb59a99	-0.08867378
246	0xbde80f1d	-0.11331008
247	0x3c6bc604	0.014390472
248	0x3d196121	0.037446145
249	0xbc548ca8	-0.012972988
250	0x3dd0010c	0.1015645
251	0x3d403048	0.046921045
252	0x3c8aceb5	0.016944269
253	0xbdc98b5e	-0.09841035
254	0x3b0bbc56	0.0021321974
255	0x3e2aa1a8	0.1666323

residual.0.resblock.1.bias f4 [32]
0	0xbc9a1772	-0.018810008
1	0xbc75ed6b	-0.015010218
2	0xbcfa27a7	-0.030536486
3	0x3cc8f00f	0.024528531
4	0x3d09a92f	0.03360861
5	0xbc6bca0c	-0.014391433
6	0x3cc62a1d	0.024190003
7	0xbca5889f	-0.020206748
8	0x3d1677a4	0.036735192
9	0x3b59fdf8	0.003326295
10	0xbd6116ae	-0.05495327
11	0x3cc9f52d	0.024653042
12	0x3c817670	0.015803546
13	0x3c37c02c	0.011215251
14	0x3d2749b3	0.04084177
15	0xbd28d7d4	-0.041221455
16	0x3d2edeac	0.042692825
17	0x3d0613dd	0.032733787
18	0x3c9fafa6	0.019492935
19	0xbd6369e0	-0.055520892
20	0xbd43490a	-0.047677077
21	0x3c652a7f	0.013987183
22	0x3cf5d1a0	0.030007184
23	0x3cf83865	0.030300329
24	0x3d48adc7	0.048993852
25	0xbcfe8c3d	-0.03107273
26	0xbd16dba3	-0.036830556
27	0xbd2e43b2	-0.042545028
28	0x3cb63241	0.02224076
29	0xbccdadec	-0.025107346
30	0x3be07881	0.0068503027
31	0x3bcaa67c	0.0061843973

residual.0.resblock.2.weight f4 [32]
0	0x3f3f4ccf	0.74726576
1	0x3f037c2a	0.51361334
2	0xbb01fa73	-0.0019833117
3	0x3f4eac0a	0.8073126
4	0x3efb1513	0.49039516
5	0x3f234e24	0.6379111
6	0x3ea340e2	0.3188544
7	0x3f1ebacc	0.6200378
8	0x3f5ff414	0.8748181
9	0x3f514c7a	0.8175732
10	0x3f408eca	0.7521788
11	0x3ec2833a	0.37990743
12	0x3ee5f9de	0.44917196
13	0x3ed3e8e3	0.41388616
14	0x3ef321fa	0.4748686
15	0x3edcb683	0.43107995
16	0x3e7ccb21	0.24686863
17	0x3f34e8fb	0.70668
18	0x3eb96bf8	0.36215186
19	0x3f5d49cc	0.8644073
20	0x3f31b5ac	0.69417834
21	0x3f2dcbea	0.67889273
22	0x3f16b41d	0.5886858
23	0x3f70178b	0.93785924
24	0x3eef1e95	0.4670302
25	0x3eb9e9b2	0.36311108
26	0x3f0dfabb	0.5546071
27	0x3ef0ad79	0.4700735
28	0x3f01a112	0.506364
29	0x3ee19bb2	0.440641
30	0x3f20f45f	0.6287288
31	0x3e9c8524	0.30570328

residual.0.resblock.2.bias f4 [32]
0	0xbe75a230	-0.23987651
1	0xbe540415	-0.20704682
2	0xbca6c870	-0.020359248
3	0xbe0e05f9	-0.13869466
4	0xbe3bba98	-0.18332899
5	0xbe202eeb	-0.15642898
6	0xbc95fddc	-0.018309526
7	0xbe105bc6	-0.14097509
8	0xbc391c6e	-0.011298282
9	0xbe143d38	-0.14476478
10	0xbea36e9a	-0.3192032
11	0xbdcfdc3b	-0.101494275
12	0xbe6643e2	-0.22486833
13	0xbedb1ac1	-0.4279385
14	0xbe0b6e65	-0.13616331
15	0xbde24e02	-0.11050035
16	0xbe368e4c	-0.1782772
17	0xbe886cfe	-0.26645654
18	0xbe12ad60	-0.1432395
19	0xbd071865	-0.03298225
20	0xbd22ccc9	-0.03974608
21	0xbe149908	-0.14511502
22	0xbe1e9286	-0.15485582
23	0x3c88aedd	0.016684944
24	0xbdc54e7a	-0.09634109
25	0xbe24369c	-0.16036457
26	0xbe4e0b67	-0.20121537
27	0xbe39e0c7	-0.18152152
28	0xbdddbfa8	-0.10827571
29	0xbc1ccb2f	-0.009569927
30	0xbdffa109	-0.12481887
31	0xbdb64b93	-0.089011334

residual.0.resblock.5.weight f4 [32, 32, 3, 3]
0	0x3d83abeb	0.06429275
1	0x3c4a40ec	0.01234458
2	0xbd2efa61	-0.04271925
3	0xbd27980e	-0.040916495
4	0xbdbe8691	-0.0930301
5	0xbcfdcb6e	-0.030980792
6	0xbe45cf6a	-0.19317403
7	0xbd80eaed	-0.062948085
8	0xbe03a7d4	-0.1285699
9	0xbd4fc365	-0.050723452
10	0xbe10b8ba	-0.14132968
11	0xbd2810e1	-0.041031722
12	0xbe2712e6	-0.16315803
13	0xbdc23a85	-0.09483818
14	0xbd658368	-0.056033522
15	0xbdf9a567	-0.12189751
16	0xbd37482f	-0.044746574
17	0xbd5cb3d6	-0.053882442
18	0xbc145866	-0.009054279
19	0xbaea9d28	-0.0017899619
20	0x3c91510b	0.01773884
21	0xbb61156d	-0.0034345046
22	0x3c1d57e8	0.009603478
23	0xbd61dd18	-0.055142492
24	0x3c41ec6f	0.011836155
25	0x3d796d31	0.06089515
26	0xbd1cef75	-0.0383143
27	0xbe40df95	-0.1883529
28	0xbe01f448	-0.12690842
29	0xbdbeb5c9	-0.093120165
30	0xbe697f65	-0.22802503
31	0xbd04cd98	-0.032422632
32	0x3d151c71	0.036404077
33	0xbdd96050	-0.10614073
34	0xbda7d717	-0.08195322
35	0x3da92d7f	0.08260631
36	0x3d343d4b	0.044003766
37	0x3c2a2ab9	0.010386162
38	0xbd98fea7	-0.07470446
39	0x3dbaa144	0.0911279
40	0x3ccc4874	0.024936892
41	0x3c91a4e7	0.017778827
42	0x3db507eb	0.08839401
43	0xbaef61d6	-0.001826341
44	0xbb64758d	-0.0034860105
45	0x3d95d206	0.073154494
46	0x3d697eb6	0.057005607
47	0x3dc3ea6c	0.09566197
48	0xbcceacf6	-0.025228959
49	0x3d846e4e	0.064663514
50	0x3d50c426	0.05096831
51	0xbdaa3570	-0.08310974
52	0xbda6bdb3	-0.08141651
53	0xbd80adf2	-0.062831774
54	0x3d81013b	0.06299063
55	0x3c9ab7f1	0.018886538
56	0xbd8afc94	-0.06786457
57	0xbcddd941	-0.027081134
58	0xbd433cfd	-0.047665585
59	0xbd95b9f8	-0.07310861
60	0xbd54295f	-0.051797267
61	0x3a61f811	0.00086200336
62	0x3d745878	0.059654683
63	0xbcdaea57	-0.02672307
64	0xbe0b4d04	-0.13603598
65	0xbc0ac0d3	-0.008468824
66	0xbe70c15a	-0.23511258
67	0xbe20ebd9	-0.15714969
68	0xbce5050f	-0.027956514
69	0xbcf1bf76	-0.029510241
70	0x3d092a57	0.033487644
71	0x3d3e4306	0.046450637
72	0xbd78623a	-0.06064055
73	0xbd28d8aa	-0.041222252
74	0x3c9f0c60	0.01941508
75	0x3dc06d45	0.093958415
76	0x3c9bb003	0.019004827
77	0xbddc1d57	-0.10747784
78	0x3db1669b	0.086621486
79	0x3d6ac3a6	0.05731549
80	0xbd87028c	-0.06592283
81	0x3d2c5642	0.04207445
82	0x3dbbe03b	0.09173628
83	0x3d07cc93	0.03315408
84	0x3cdff045	0.02733625
85	0x3decad9f	0.11556553
86	0x3dbc12ec	0.091832966
87	0x3d872f74	0.06600848
88	0x3c0b711e	0.008510856
89	0x3d8a847c	0.06763551
90	0xbe1e6a12	-0.1547015
91	0xbdb99be5	-0.09062938
92	0xbdfcac7f	-0.123375885
93	0xbe3226ab	-0.17397563
94	0xbe213f03	-0.15746693
95	0xbd942cbe	-0.072350964
96	0xbe2e911e	-0.17047545
97	0xbe221a7c	-0.15830415
98	0xbd4311a8	-0.04762426
99	0x3e0e49c2	0.13895324
100	0x3e3a3a63	0.18186335
101	0x3e111084	0.14166456
102	0x3e548b56	0.20756277
103	0x3e56c990	0.20975327
104	0x3cff0c17	0.031133695
105	0x3e467b2a	0.19382921
106	0x3dd5637f	0.10419368
107	0xbd3b805e	-0.045776717
108	0x3dc97a32	0.0983776
109	0x3e11a917	0.14224659
110	0x3d8c6ce1	0.068567045
111	0x3d868395	0.06568066
112	0xbbd21236	-0.0064108623
113	0x3e2539b6	0.16135296
114	0xbd99600c	-0.074890226
115	0xbd0d8902	-0.03455449
116	0x3e20f327	0.15717755
117	0x3c50a345	0.012734239
118	0xbdacc834	-0.08436623
119	0xbddf12bf	-0.108922474
120	0x3d99f4eb	0.075174175
121	0x3d61e500	0.055150032
122	0x3d1d3066	0.038376234
123	0x3e374459	0.17897166
124	0x3dca69a3	0.0988343
125	0x3dde5bcc	0.108573526
126	0xbccaad3e	-0.024740811
127	0xbd83c584	-0.064341575
128	0x3dc910e4	0.09817675
129	0x3cb03941	0.021511676
130	0xbde27847	-0.11058097
131	0x3ce0ee2e	0.027457323
132	0xbd5fb230	-0.054613292
133	0xbdf9bd0c	-0.12194261
134	0x3b8cc498	0.0042958967
135	0x3e09f390	0.13471818
136	0x3d2716f7	0.040793385
137	0x3e0fec9f	0.14055108
138	0x3e456c10	0.19279504
139	0x3e826b9d	0.25472727
140	0x3e1172dd	0.14203973
141	0x3e2b8ac6	0.16752157
142	0x3e13c91b	0.14432184
143	0x3de5a19a	0.11212464
144	0xbe132bc4	-0.14372164
145	0xbd7e7fc7	-0.062133577
146	0xbdc0f33a	-0.09421392
147	0xbd8508aa	-0.06495793
148	0xbd9a14d5	-0.07523505
149	0xbe30c25b	-0.1726164
150	0x3d14d147	0.036332395
151	0xbe0ca95b	-0.13736479
152	0xbe825466	-0.25455016
153	0x3e752eda	0.23943654
154	0x3e09bbca	0.13450542
155	0x3d625eee	0.055266313
156	0x3e3e34b8	0.18574798
157	0xbc36578c	-0.011129271
158	0xbd4532f9	-0.048144314
159	0x3d907f52	0.070555344
160	0xbd9f30fb	-0.07773014
161	0xb9390c7b	-0.00017647624
162	0x3dbf95af	0.09354722
163	0x3dc952ef	0.098302715
164	0xbcce59ad	-0.025189245
165	0x3e11f7af	0.1425464
166	0x3e3467c4	0.17617708
167	0x3ca05574	0.019571997
168	0x3e805090	0.25061464
169	0x3df2eb23	0.11861255
170	0x3e0e2a1b	0.1388325
171	0xbdb9d5e8	-0.090740025
172	0xbe52e659	-0.20595683
173	0xbd89ea73	-0.06734171
174	0xbd73415f	-0.059388515
175	0xbdcd79e5	-0.10033015
176	0xbd14ad99	-0.036298368
177	0x3c3ffb32	0.0117176045
178	0xbd122618	-0.03568086
179	0xbd8ed87a	-0.069748834
180	0x3d40dbc3	0.04708458
181	0x3e44a2b4	0.19202691
182	0x3d8bfcbc	0.06835315
183	0xbb1bac62	-0.0023753871
184	0x3d818d00	0.06325722
185	0xbc1484e6	-0.009064889
186	0x3d9c1d90	0.07622826
187	0xbd28b32e	-0.041186504
188	0x3d485b96	0.04891547
189	0x3daf09a1	0.085467584
190	0x3ccdeceb	0.025137385
191	0xbd982ae5	-0.074300565
192	0x3d9ca961	0.07649494
193	0xbc2d5158	-0.010578476
194	0xbc4b0afd	-0.0123927565
195	0xbd0d57fa	-0.03450773
196	0xbdb0a9ac	-0.08626112
197	0x3d446bb1	0.047954265
198	0x3dc965a3	0.09833839
199	0xbd803a10	-0.062610745
200	0xbd925ec3	-0.071469806
201	0xbc463be7	-0.012099243
202	0xbdef9f5c	-0.11700317
203	0xbe29fa87	-0.16599475
204	0xbdc52fd4	-0.09628263
205	0xbe7a1414	-0.24421722
206	0xbd79e5ad	-0.06101005
207	0xbcbc2713	-0.02296785
208	0xbe4ed7bd	-0.20199485
209	0xbe376922	-0.17911199
210	0xbe0ee8c5	-0.13955982
211	0xbe75a523	-0.23988776
212	0xbe51420f	-0.20435356
213	0xbe0cf011	-0.13763453
214	0xbe71e6c0	-0.2362318
215	0xbb5f8381	-0.0034105482
216	0x3ea4b94d	0.32172623
217	0x3e67fcd4	0.2265504
218	0x3e849ec7	0.25902387
219	0x3e6d179e	0.2315354
220	0x3e89b211	0.26893666
221	0x3e4520cb	0.19250791
222	0x3db2819d	0.08716128
223	0x3d69a672	0.0570435
224	0x3e051a5d	0.12998338
225	0x3d03affa	0.032150246
226	0xbd9ef4a1	-0.07761503
227	0xbdc4ba10	-0.09605801
228	0x3d075132	0.03303642
229	0xbe38d629	-0.18050446
230	0xbe891174	-0.26771128
231	0x3dc7f201	0.097629555
232	0xbd9769a4	-0.07393196
233	0xbd9a74ed	-0.07541833
234	0x3bbd4acc	0.0057767387
235	0xbde79327	-0.11307364
236	0xbcdd1597	-0.026987834
237	0xbd32bed0	-0.043639004
238	0xbd9673ef	-0.07346331
239	0x3bcbf205	0.0062239193
240	0xbd161c9a	-0.03664837
241	0xbca64122	-0.02029473
242	0x3d91628b	0.07098874
243	0x3d8254c3	0.06363823
244	0x3dc34b62	0.095358625
245	0xbbb7fb3b	-0.005614666
246	0x3d42ba2c	0.04754083
247	0x3d186ce0	0.037213206
248	0xbc1fea00	-0.00976038
249	0x3e4332cd	0.19062348
250	0x3d44d4ed	0.048054624
251	0xbb893177	-0.004186805
252	0x3e5ca3b5	0.21546824
253	0x3e11f644	0.14254099
254	0x3d53b055	0.051681835
255	0x3dfb490c	0.12269792

residual.0.resblock.5.bias f4 [32]
0	0xbd1633e0	-0.036670566
1	0x3d0a7996	0.03380736
2	0xbb59b8c4	-0.00332217
3	0xbc0eebb5	-0.008723189
4	0x3b612d03	0.0034359104
5	0xbcc0f7af	-0.023555605
6	0xbd6ba446	-0.05752971
7	0xbd62a578	-0.055333585
8	0xbd053c70	-0.03252834
9	0xbd6b9a6a	-0.057520308
10	0xbc58d66d	-0.013234717
11	0xbb9070b4	-0.0044079665
12	0x3d06b5fb	0.032888394
13	0xbc9be679	-0.019030796
14	0xbcc03f66	-0.02346773
15	0x3c393da3	0.011306199
16	0xbcf4866a	-0.02984925
17	0x3c74a3d8	0.0149316415
18	0xbc9512bd	-0.018197412
19	0xbb31b69a	-0.0027116896
20	0xbcf2c28a	-0.02963378
21	0xbc53af77	-0.012920252
22	0xbcd35433	-0.025796985
23	0xbd578138	-0.052613467
24	0x3cb1cd52	0.02170435
25	0xbd582f99	-0.052779768
26	0x3ce685f4	0.028140046
27	0xbd1c50f3	-0.038163137
28	0xbd673a04	-0.056451812
29	0xbbef2458	-0.0072980337
30	0x3d07a042	0.033111818
31	0xbd40a979	-0.04703662

residual.0.resblock.6.weight f4 [32]
0	0x3e6474f1	0.22310235
1	0x3e971037	0.29504558
2	0x3ea44365	0.32082668
3	0xbd0c1e6c	-0.0342087
4	0x3f3a073f	0.72667307
5	0x3f173d75	0.5907815
6	0x3efa8e87	0.48936865
7	0x3eb6fa9b	0.35738072
8	0x3e6f2764	0.2335487
9	0x3e4811fd	0.19538112
10	0x3f0eff3f	0.55858225
11	0x3e33d810	0.1756289
12	0x3ed69892	0.41913277
13	0x3e389343	0.18024926
14	0x3f659874	0.8968575
15	0x3e1d3957	0.15353905
16	0x3e5171bd	0.20453544
17	0x3f4edcdb	0.8080575
18	0x3e9faab3	0.3118492
19	0x3f6e1304	0.92997766
20	0x3e483d5c	0.19554657
21	0x3e89174d	0.2677559
22	0x3ec9ea62	0.39436632
23	0x3f2be5b2	0.6714736
24	0x3e310cd0	0.17290044
25	0x3f473a68	0.77823496
26	0x3e94260f	0.28935286
27	0x3f43ab15	0.76432925
28	0x3f56f044	0.83960366
29	0x3f172a96	0.59049356
30	0x3f397258	0.724401
31	0x3f428244	0.7598002

residual.0.resblock.6.bias f4 [32]
0	0xb90593b0	-0.00012738886
1	0x3883383b	6.2570405e-05
2	0xb9fd0a6f	-0.00048263694
3	0xb94f4cc6	-0.00019769659
4	0xb8bbe606	-8.9597e-05
5	0xb9cf989b	-0.00039595817
6	0xba2f1c32	-0.00066799216
7	0xb9a402eb	-0.00031282692
8	0xba3038d8	-0.00067223376
9	0xba947c06	-0.0011328466
10	0xbabafb82	-0.0014265629
11	0x39f09883	0.00045889997
12	0xba211c14	-0.00061458466
13	0xba0040de	-0.00048924785
14	0xb860be92	-5.3583244e-05
15	0xba6e0782	-0.0009080098
16	0xbabba64b	-0.0014316527
17	0xb894a4db	-7.087897e-05
18	0x3a12083a	0.0005570684
19	0x39d82a9f	0.00041230486
20	0xb9a0ca83	-0.0003066846
21	0x39b077b2	0.00033658516
22	0xba83ef07	-0.0010065743
23	0xb906761c	-0.00012823235
24	0xb9815456	-0.00024667633
25	0xb9c6d1d0	-0.00037921825
26	0xb9cb8a7c	-0.00038822356
27	0xb9ec48c8	-0.00045067654
28	0x384cfacd	4.8870967e-05
29	0xb963bbab	-0.00021718319
30	0xb9b0fea6	-0.00033759064
31	0x38d09a2c	9.94693e-05

residual.1.weight f4 [64, 1, 1, 1]
0	0xbeb61683	-0.3556405
1	0xbe816b3e	-0.25277132
2	0x3ec8cad5	0.3921725
3	0xbf10e428	-0.5659814
4	0x3f7b8bdc	0.98260283
5	0x3ea6224b	0.32448038
6	0xbec41207	-0.38295004
7	0x3f58c3db	0.8467385
8	0xbf22079f	-0.6329288
9	0xbf187763	-0.5955717
10	0x3e3d748c	0.1850149
11	0xbf2ba50e	-0.6704873
12	0xbf036bd6	-0.5133642
13	0x3f3d57dc	0.7396219
14	0x3f085a3e	0.532627
15	0xbef4e0cd	-0.4782776
16	0xbf74a0c0	-0.95557785
17	0x3ea3f5ef	0.3202357
18	0xbf279f1f	-0.65477175
19	0x3f4f49b0	0.80971813
20	0x3f56ee4a	0.8395735
21	0xbe7295dd	-0.23689981
22	0xbeffb4d2	-0.49942642
23	0xbe2c0616	-0.16799197
24	0x3e634113	0.22192793
25	0x3f45fc5b	0.7733819
26	0x3f550f88	0.83226824
27	0x3f0cb76f	0.549674
28	0x3dbf2acf	0.09334337
29	0x3ee1f7e2	0.44134432
30	0xbf3204bd	-0.6953848
31	0xbf1044b9	-0.5635486
32	0xbf76ead2	-0.9645206
33	0x3efa475d	0.4888257
34	0x3bd7a47c	0.0065808874
35	0xbef33397	-0.47500297
36	0xbef6969b	-0.48161778
37	0xbf4db9d7	-0.80361694
38	0xbe744055	-0.23852666
39	0x3eb07a9e	0.3446855
40	0xbf447041	-0.76733786
41	0x3e5e4328	0.21705306
42	0x3f44bcb3	0.7685043
43	0xbf3e4522	-0.7432424
44	0xbeb2b802	-0.34906012
45	0x3f46c102	0.77638257
46	0xbf34473c	-0.70421195
47	0xbe3241f4	-0.17407972
48	0xbee193a9	-0.44057968
49	0xbedab39e	-0.42715162
50	0xbf31c5de	-0.69442546
51	0x3e756e5d	0.23967882
52	0x3f00ac67	0.50263065
53	0xbe803064	-0.2503692
54	0x3f2c6c5b	0.6735284
55	0x3e3affa1	0.18261577
56	0xbf4dc2ac	-0.8037517
57	0x3f2d4e7a	0.6769787
58	0x3f495bbd	0.78655607
59	0x3f2ea140	0.682148
60	0x3f1cec6a	0.6129824
61	0x3e6e2ec0	0.23260021
62	0xbef156d4	-0.47136557
63	0xbc83045a	-0.015993286
